# YOLO

# parameters
nc: 80  # number of classes
depth_multiple: 0.33  # model depth multiple
width_multiple: 0.50  # layer channel multiple
#activation: nn.LeakyReLU(0.1)

# anchors
anchors: 3

backbone:
  [
   [-1, 1, Conv, [64, 3, 2]],
   [-1, 1, Conv, [128, 3, 2]],
   [-1, 3, C2f, [128, True]],
   [-1, 1, Conv, [256, 3, 2]],
   [-1, 6, C2f, [256, True]],
   [-1, 1, Conv, [512, 3, 2]],
   [-1, 6, C2f, [512, True]],
   [-1, 1, Conv, [1024, 3, 2]],
   [-1, 3, C2f, [1024, True]],
   [-1, 1, SPPF, [1024, 5]],
  ]

head:
  [
   [-1, 1, nn.Upsample, [None, 2, "nearest"]],
   [[-1, 6], 1, Concat, [1]],
   [-1, 3, C2f, [512]],

   [-1, 1, nn.Upsample, [None, 2, "nearest"]],
   [[-1, 4], 1, Concat, [1]],
   [-1, 3, C2f, [256]],

   [-1, 1, Conv, [256, 3, 2]],
   [[-1, 12], 1, Concat, [1]],
   [-1, 3, C2f, [512]],

   [-1, 1, Conv, [512, 3, 2]],
   [[-1, 9], 1, Concat, [1]],
   [-1, 3, C2f, [1024]],

   # detect
   [[15, 18, 21], 1, Detect, [nc]],
  ]
